wafer_defect_model.onnx (onnx, 223560 bytes, 10 tensors)

StatefulPartitionedCall/sequential_2_1/dense_5_1/Cast/ReadVariableOp:0 f4 [64, 416]
0.06703948 -0.094588436 -0.12356401 -0.080826044 0.061302856 -0.027212333 0.06017213 -0.083235525
0.073047064 0.02192798 -0.017554464 0.003997431 -0.09496576 0.10093802 0.035229575 0.038935564
-0.0232245 -0.007905361 -0.044849522 -0.020476738 -0.03097433 -0.05987799 -0.025216874 0.05807289
-0.09095487 0.08406931 -0.119631596 0.069331 -0.10478195 0.081175104 -0.04873386 -0.06649802
-0.109152414 -0.06619313 -0.076181196 -0.078003086 0.034000777 0.019953175 -0.09735423 -0.09917564
-0.003965208 0.0631542 0.030248007 0.08679486 -0.086960115 -0.051630005 -0.04893321 -0.051139176
0.0023551988 0.059308935 -0.11065307 0.04962913 -0.029435687 0.08617951 0.0021254297 -0.11426786
-0.09517528 -0.11707792 0.05491581 0.07122934 -0.12132948 -0.090150245 -0.09895929 -0.012285556
0.10224641 -0.08283722 0.10205952 0.07232296 -0.10219836 -0.035921082 -0.10598828 -0.056621492
0.07255139 -0.06608615 0.024349011 0.056406863 0.07548229 -0.10115807 -0.014821778 0.086166635
-0.024199253 0.04271901 0.0023766002 -0.09165388 -0.073733896 -0.10728664 -0.011328051 0.053237073
0.013364782 -0.006325276 -0.033584096 -0.10975272 0.032578707 -0.06681347 0.07413567 -0.015789567
-0.08647944 0.042488232 -0.003311151 -0.048177585 -0.107476495 0.07611057 0.015335725 0.06651991
-0.117910184 0.049995787 -0.110892035 -0.12303833 -0.033867195 -0.11563221 0.07764043 -0.11479914
0.0138612 0.09576161 -0.06043024 -0.08056657 -0.013865862 0.043601424 0.06860567 -0.0091016535
0.043235775 -0.07278324 0.014108568 -0.08660966 0.067414954 -0.008601968 0.03246709 0.0271381
0.00088515977 0.010540886 0.03937756 -0.011428302 0.06653374 -0.05666232 0.06684125 -0.0074640764
-0.09342796 -0.036652725 -0.04600015 -0.1160722 -0.007775787 -0.0502533 -0.099134095 -0.10447283
0.08036325 -0.056254566 0.08993377 -0.05537113 -0.08571591 0.07500741 0.06726238 0.04142205
0.011642769 0.01161974 -0.08042223 0.034576576 0.09841546 -0.098446846 0.05435311 -0.033275634
-0.12030318 -0.08259482 -0.12704778 0.0122516155 0.06324371 0.024895646 -0.045568936 0.031725533
0.07986644 0.075396895 -0.02041504 0.069606714 0.06750707 0.04692055 0.08083964 0.05184343
-0.10777924 0.05223519 0.034205925 -0.061943825 -0.12008253 -0.10521464 0.022088379 -0.09810098
0.026290843 -0.08683508 -0.05316983 -0.11477334 -0.08260683 0.051610228 -0.053018812 0.0051580514
0.08980397 -0.078162484 0.067696355 -0.05062061 0.054906927 -0.098933056 -0.048885774 -0.009341545
0.0928809 0.011367637 0.045752086 -0.021303 -0.111659035 -0.054071624 0.02160994 0.07747218
-0.10579079 -0.09989362 0.101085454 0.089852124 -0.10916961 0.05389907 0.0012621772 0.07566717
0.00047872603 0.031079246 0.08551095 0.063708544 0.0069695944 -0.0013263752 -0.062222466 -0.06567354
-0.008993852 -0.076990694 0.089292005 -0.026040565 -0.044192925 0.009101609 -0.07560393 -0.0059533473
0.019258685 0.033800524 -0.10126457 0.02993778 0.08377535 0.08569378 -0.11064847 -0.07668402
0.045131363 -0.009421032 0.028978232 0.038630474 -0.089361675 -0.017490212 -0.043022726 0.10207368
0.080278575 -0.094459504 0.0006689585 -0.022358544 -0.026581816 -0.122595645 0.01635349 -0.05734799
00000000: ff4b 893d 95b7 c1bd 210f fdbd 2088 a5bd
00000010: b418 7b3d 66ec debc 0d77 763d 6377 aabd
00000020: b399 953d 4fa2 b33c 61ce 8fbc e2fc 823b
00000030: 697d c2bd 98b8 ce3d e34c 103d e67a 1f3d
00000040: 4e41 bebc 7d85 01bc 22b4 37bd d5be a7bc
00000050: e1bd fdbc a042 75bd 9e93 cebc d7dd 6d3d
00000060: 8c46 babd 882c ac3d 6901 f5bd 69fd 8d3d
00000070: eb97 d6bd 223f a63d 289d 47bd 1d30 88bd
00000080: 4d8b dfbd 4490 87bd e304 9cbd 15c0 9fbd
00000090: 6644 0b3d d774 a33c a861 c7bd 991c cbbd
000000a0: 93ee 81bb fd56 813d abca f73c 81c1 b13d
000000b0: 2518 b2bd fc79 53bd 316e 48bd 5077 51bd
000000c0: ae59 1a3b eded 723d 149e e2bd ea47 4b3d
000000d0: 1c23 f1bc e27e b03d cb4a 0b3b 4505 eabd
000000e0: 42eb c2bd 8cc6 efbd 66ef 603d b0e0 913d
000000f0: 977b f8bd b1a0 b8bd 2bab cabd 5b49 49bc
00000100: 9166 d13d 8fa6 a9bd 9504 d13d 0f1e 943d
00000110: 604d d1bd fc21 13bd 6210 d9bd f0eb 67bd
00000120: d395 943d 2d58 87bd 9477 c73c e20a 673d
00000130: 7596 9a3d f62b cfbd 0bd7 72bc 2278 b03d
00000140: 833d c6bc 21fa 2e3d bcc0 1b3b 08b5 bbbd
00000150: cc01 97bd 19b9 dbbd 4a99 39bc 1e0f 5a3d
00000160: f5f7 5a3c 4344 cfbb 7a8f 09bd 09c6 e0bd
00000170: 4071 053d 80d5 88bd 71d4 973d 1f59 81bc
00000180: 221c b1bd 2408 2e3d e5ff 58bb dc55 45bd
00000190: a31c dcbd dcdf 9b3d b142 7b3c 973b 883d
000001a0: e57a f1bd 62c8 4c3d 5d1b e3bd 85fb fbbd
000001b0: 54b8 0abd 95d0 ecbd f201 9f3d d01b ebbd
000001c0: 161a 633c aa1e c43d b385 77bd 1600 a5bd
000001d0: a42d 63bc 6897 323d 2181 8c3d 1a1f 15bc
000001e0: ff17 313d 610f 95bd a027 673c 6860 b1bd
000001f0: da10 8a3d 45ef 0cbc 36fc 043d b850 de3c
00000200: 110a 683a aeb3 2c3c 5d4a 213d c63d 3bbc
00000210: d742 883d c016 68bd 11e4 883d 3695 f4bb
00000220: 2957 bfbd 2b21 16bd a76a 3cbd 43b7 edbd
00000230: 07cc febb 68d6 4dbd d106 cbbd daf5 d5bd
00000240: 7d95 a43d 306b 66bd 322f b83d d7cc 62bd
00000250: d38b afbd 7c9d 993d dcc0 893d 2baa 293d
00000260: 50c1 3e3c b960 3e3c 69b4 a4bd 2ba0 0d3d
00000270: 0b8e c93d 809e c9bd 5ea1 5e3d 084c 08bd
00000280: 8361 f6bd 7927 a9bd d018 02be 00bb 483c
00000290: eb85 813d f4f1 cb3c 7ea6 3abd a2f2 013d
000002a0: 0491 a33d b069 9a3d 713d a7bc f78d 8e3d
000002b0: 2641 8a3d c32f 403d 418f a53d c759 543d
000002c0: 5dbb dcbd 91f4 553d 831b 0c3d cfb8 7dbd
000002d0: d4ed f5bd c67a d7bd b0f2 b43c 2be9 c8bd
000002e0: e55f d73c 97d6 b1bd 9cc8 59bd 490e ebbd
000002f0: c52d a9bd 3f65 533d 412a 59bd df04 a93b
00000300: 25eb b73d a713 a0bd 63a4 8a3d 8f57 4fbd
00000310: 16e6 603d 6a9d cabd 733c 48bd 480d 19bc
00000320: 5738 be3d 533f 3a3c 8a66 3b3d a183 aebc
00000330: 7ead e4bd 357a 5dbd 5407 b13c bca9 9e3d
00000340: d7a8 d8bd 0795 ccbd e405 cf3d 6404 b83d
00000350: 5194 dfbd 45c5 5c3d a46f a53a 64f7 9a3d
00000360: 85fd fa39 e799 fe3c 5d20 af3d a079 823d
00000370: 3261 e43b c4d9 adba fcdc 7ebd d97f 86bd
00000380: f35a 13bc 4cad 9dbd bade b63d 0653 d5bc
00000390: a403 35bd ea1e 153c 3cd6 9abd 4c14 c3bb
000003a0: 64c4 9d3c 6b72 0a3d cd63 cfbd 1340 f53c
000003b0: 6992 ab3d 3880 af3d aa9b e2bd 830c 9dbd
000003c0: aadb 383d ac5a 1abc c263 ed3c fd3a 1e3d
000003d0: 4103 b7bd a247 8fbc 9938 30bd 010c d13d
000003e0: 1869 a43d fc73 c1bd 0c5d 2f3a 4429 b7bc
000003f0: 1cc2 d9bc 6d13 fbbd c1f7 853c bae5 6abd

StatefulPartitionedCall/sequential_2_1/dense_5_1/BiasAdd/ReadVariableOp:0 f4 [416]
0.6256451 -0.022176294 -0.9021887 -0.19535325 -0.51742876 -0.5358194 -0.2659552 0.47181162
-0.94353527 -0.98483545 -0.53943336 -0.9262026 -0.86628777 -0.8255535 -0.8457622 -0.8623802
-0.89762205 -0.73446274 -0.6460672 -0.87641263 -0.99253994 -0.9481839 -0.7444074 -0.99206775
-0.970385 -0.9748987 -0.8258032 -0.9744891 -0.68140364 -0.8810624 -0.9362156 -0.9380941
-0.94969857 -0.80553323 -0.7506241 -0.91951287 -0.6918981 -0.97033584 -0.96385723 -0.95604557
-1.0025108 -0.9424097 -0.68859655 -0.6337086 -0.97706264 -0.84932053 -0.93363243 -0.8700785
-0.9752702 -0.7762819 -0.752013 -0.94961756 -0.6988704 -0.91742766 -0.9201597 -0.9538297
-0.9741417 -0.9271716 -1.0180941 -0.93057317 -0.7973303 -0.913382 -0.86916524 -0.8513162
-0.3830527 -0.4728606 -0.5767906 -0.9385195 -0.97088206 -0.9399089 -0.8724854 -0.9455405
-0.8722959 -0.9845497 -0.90062326 -0.9726622 -0.9316222 -0.86970615 -0.8935811 -0.98684126
-0.8008472 -0.9750147 -0.87739056 -0.85884213 -0.8588164 -0.92582613 -0.7645904 -0.8465195
-0.83566004 -1.0049247 -0.95597696 -0.9769041 -0.9649874 -0.90601367 -0.83386344 -0.79553926
-0.93655413 -0.9775609 -0.93740475 -0.9145774 -0.8606995 -0.9288103 -0.9264658 -0.8520639
-0.78704196 -0.9821265 -0.80517423 -0.8737405 -0.95390093 -0.88541484 -0.9389441 -0.69707495
-0.95498765 -0.9228821 -0.81988007 -0.93841416 -0.9690583 -0.69736725 -0.92307377 -0.8628751
-0.8951168 -0.7995581 -0.9530316 -0.721247 -0.8980388 -0.9004459 -0.9156301 -0.9722721
-0.8734966 -0.9215151 -0.942755 -0.90288156 -0.59653276 -0.95839 -0.8229591 -0.9882176
-0.8867615 -0.8445933 -1.01565 -0.9717899 -0.9675459 -0.90302676 -0.8811806 -0.91373676
-0.8958382 -0.77404994 -0.84248185 -0.62273234 -0.91683924 -0.96608275 -0.7808192 -0.8671607
-0.8574909 -0.81757295 -0.97301733 -0.9208249 -0.94291097 -0.9803224 -0.9543773 -0.70696807
-0.90171087 -0.93423826 -0.9333071 -0.8856281 -0.95119023 -0.8901169 -0.89625454 -0.9247084
-0.96383923 -0.8490102 -0.93487084 -0.96091706 -0.87593913 -0.89696383 -0.7608292 -0.9412852
-0.92087096 -0.9133293 -0.89266264 -0.96315694 -0.8619794 -0.9710772 -0.91553795 -0.9979669
-0.82990617 -0.88631403 -0.91472304 -0.9277636 -0.8536866 -0.9628181 -0.88224983 -0.99208957
-0.8033869 -0.73310035 -0.9183759 -0.8539872 -0.97454333 -0.75001234 -0.88977253 -0.92138547
-0.9102795 -0.84056014 -0.95697284 -0.9866791 -0.9549932 -0.94173455 -0.6606396 -0.8747482
-0.9524096 -0.95180905 -0.8516835 -0.9559122 -0.9752677 -1.0120792 -0.9228101 -0.89887273
-0.8293402 -0.965326 -0.9115274 -0.92123306 -0.9040018 -0.9504461 -0.8592114 -0.96696824
-0.9736378 -0.71156806 -0.76926315 -0.79268533 -0.78894347 -0.96466464 -0.8367279 -0.96933216
-0.92005664 -0.89469916 -0.9478481 -0.9876504 -0.75409967 -0.9815414 -0.91160774 -0.9890993
-0.8973006 -0.8587916 -0.7762469 -0.95821154 -0.9986761 -0.9493171 -0.9815425 -0.6406379
-0.92488176 -0.87695676 -0.82410824 -0.90370584 -0.9371998 -0.8263833 -0.8911195 -0.88463837
00000000: 472a 203f 0fab b5bc d7f5 66bf af0a 48be
00000010: 3676 04bf 762b 09bf 482b 88be 4b91 f13e
00000020: 878b 71bf 2d1e 7cbf 4e18 0abf 9d1b 6dbf
00000030: 09c5 5dbf 7957 53bf df83 58bf f3c4 5cbf
00000040: 8fca 65bf c005 3cbf a964 25bf 945c 60bf
00000050: 1917 7ebf 2ebc 72bf 7c91 3ebf 27f8 7dbf
00000060: 276b 78bf f692 79bf d767 53bf 1e78 79bf
00000070: 7870 2ebf 4e8d 61bf d3ab 6fbf ef26 70bf
00000080: 721f 73bf 6d37 4ebf e728 40bf 3265 6bbf
00000090: 3c20 31bf ee67 78bf 59bf 76bf 67bf 74bf
000000a0: 4652 80bf c341 71bf dd47 30bf ba3a 22bf
000000b0: c720 7abf 126d 59bf 8902 6fbf 77bd 5ebf
000000c0: 4fab 79bf 69ba 46bf ed83 40bf 231a 73bf
000000d0: 2ce9 32bf 8adc 6abf 968f 6bbf 2f2e 74bf
000000e0: 5a61 79bf 1e5b 6dbf e850 82bf 0b3a 6ebf
000000f0: d71d 4cbf 67d3 69bf 9d81 5ebf dcef 59bf
00000100: 7c1f c4be c91a f2be 8ca8 13bf d042 70bf
00000110: ba8b 78bf df9d 70bf 345b 5fbf f10e 72bf
00000120: c94e 5fbf 730b 7cbf 3f8f 66bf 6400 79bf
00000130: cb7e 6ebf 10a5 5ebf bbc1 64bf a1a1 7cbf
00000140: 5204 4dbf 909a 79bf ab9c 60bf 14dd 5bbf
00000150: 64db 5bbf f102 6dbf 32bc 43bf 80b5 58bf
00000160: d1ed 55bf 5fa1 80bf e8ba 74bf 6316 7abf
00000170: 6a09 77bf 83f0 67bf 1378 55bf 76a8 4bbf
00000180: 03c2 6fbf 6e41 7abf c2f9 6fbf bf21 6abf
00000190: cd56 5cbf 83c6 6dbf dd2c 6dbf dc20 5abf
000001a0: 957b 49bf a46c 7bbf e61f 4ebf 75ad 5fbf
000001b0: da32 74bf 8caa 62bf a45e 70bf 8173 32bf
000001c0: 127a 74bf 0042 6cbf a9e3 51bf e93b 70bf
000001d0: 3414 78bf a986 32bf 904e 6cbf 62e5 5cbf
000001e0: 6026 65bf d7af 4cbf e1f9 73bf a5a3 38bf
000001f0: dfe5 65bf 9f83 66bf bc66 6abf d3e6 78bf
00000200: 799d 5fbf 6ae8 6bbf 6458 71bf 3f23 67bf
00000210: 5fb6 18bf 0c59 75bf 73ad 52bf d4fb 7cbf
00000220: cd02 63bf 4437 58bf d200 82bf 39c7 78bf
00000230: 17b1 77bf c32c 67bf 0d95 61bf a7ea 69bf
00000240: a755 65bf 2328 46bf e4ac 57bf 636b 1fbf
00000250: fab5 6abf 3351 77bf c4e3 47bf 3efe 5dbf
00000260: 8684 5bbf 764c 51bf aa17 79bf 2ebb 6bbf
00000270: 9d62 71bf 69f6 7abf 1252 74bf dcfb 34bf
00000280: 86d6 66bf 3d2a 6fbf 37ed 6ebf 86b8 62bf
00000290: 3481 73bf b3de 63bf f070 65bf b1b9 6cbf
000002a0: 2bbe 76bf bc58 59bf b253 6fbf a9fe 75bf
000002b0: 8c3d 60bf 6c9f 65bf b4c5 42bf 11f8 70bf
000002c0: 33be 6bbf f3cf 69bf 8a85 64bf 7491 76bf
000002d0: afaa 5cbf 8498 78bf b260 6abf c27a 7fbf
000002e0: bb74 54bf 7ae5 62bf 4a2b 6abf ea81 6dbf
000002f0: 348b 5abf 3f7b 76bf 20db 61bf 95f9 7dbf
00000300: c4aa 4dbf 77ac 3bbf af1a 6bbf e89e 5abf
00000310: ac7b 79bf cf00 40bf 22c8 63bf ebdf 6bbf
00000320: 1408 69bf f32e 57bf 2cfc 74bf 0097 7cbf
00000330: 6f7a 74bf 8415 71bf ad1f 29bf 7fef 5fbf
00000340: 1ed1 73bf c2a9 73bf ee07 5abf a9b6 74bf
00000350: 25ab 79bf d08b 81bf 483d 6cbf 861c 66bf
00000360: a44f 54bf 9b1f 77bf dc59 69bf eed5 6bbf
00000370: a96c 67bf 7050 73bf 47f5 5bbf 3b8b 77bf
00000380: 5440 79bf 5329 36bf 6eee 44bf 6ded 4abf
00000390: 33f8 49bf 43f4 76bf cd33 56bf 2726 78bf
000003a0: d588 6bbf 010b 65bf 2ca6 72bf a8d6 7cbf
000003b0: ad0c 41bf 4c46 7bbf 205f 69bf 9d35 7dbf
000003c0: 7eb5 65bf c4d9 5bbf 1eb8 46bf 5a4d 75bf
000003d0: 3da9 7fbf 7206 73bf 5f46 7bbf d800 24bf
000003e0: 0dc5 6cbf 3d80 60bf c2f8 52bf 4459 67bf
000003f0: 53ec 6fbf db8d 53bf 6820 64bf a977 62bf

StatefulPartitionedCall/sequential_2_1/dense_4_1/Cast/ReadVariableOp:0 f4 [64, 64]
-0.08907801 0.1433661 0.12161294 -0.15963519 -0.23768517 -0.094238706 0.061222784 0.17805986
-0.14550827 -0.00873614 0.0626839 -0.0535829 0.25114545 -0.12374082 -0.050446615 0.13157609
-0.13525283 0.035928875 -0.07569485 0.24720438 -0.094184056 0.301754 -0.052752983 0.22381313
0.06658281 -0.023769373 0.06220052 -0.12273012 0.051341478 0.18903749 -0.07713703 -0.03169955
0.2329071 0.14459686 0.0805031 -0.16156748 0.04874406 0.075289205 -0.17977269 -0.26008174
-0.17341149 0.28545183 -0.17478837 -0.11420962 -0.16203578 0.044976816 -0.0957471 0.18597947
-0.09433292 -0.15940693 -0.057243265 0.15133654 -0.10829934 -0.18112153 0.18634087 -0.1003222
-0.10318703 -0.11167237 0.028078465 -0.17095737 -0.053509012 0.1662732 0.11216306 0.24268839
0.1313668 -0.046696752 0.11411938 0.033665866 0.10291063 -0.22214392 0.06667025 0.21211134
-0.029427554 0.07918829 0.03967626 -0.10334698 0.1461336 0.033273697 0.049870856 0.014251924
0.050152946 0.10177543 -0.084950306 -0.09053323 0.114963435 -0.3087088 -0.15808854 0.18132049
-0.18492246 -0.05807146 0.094300725 -0.035718217 -0.203026 -0.0135906935 0.12187186 -0.17776886
0.06886219 -0.25653976 0.02287404 -0.20242263 -0.11952194 0.14771514 -0.20350756 0.19617599
0.15030096 0.12493008 -0.10530313 -0.16456525 -0.07922092 -0.17152944 -0.17293687 -0.116036825
-0.13953842 -0.039720368 0.12808068 0.16781934 -0.054296367 0.010388091 -0.17871141 -0.25471354
0.028642472 0.15696232 0.018571535 -0.18003976 -0.012614429 -0.31309894 -0.051811934 0.16749935
0.1591202 -0.15610677 0.14781457 -0.11488903 0.10983437 -0.18032648 -0.20565929 -0.15920843
0.15675913 0.058315523 -0.0626773 -0.06256272 -0.021916129 -0.15556753 0.20015831 -0.16567922
0.1571703 -0.0665724 0.10217125 -0.023611218 -0.07642413 -0.23308884 0.1813331 0.2283941
-0.051638916 0.12327078 0.10040982 -0.16549374 -0.06364707 -0.16879705 -0.063427135 -0.07327917
0.13781388 -0.14054455 -0.06372935 0.020058835 0.10687762 0.09314362 0.067970075 -0.15804558
0.14533333 0.14024483 -0.049430687 0.0046334984 -0.094770715 -0.003374246 0.11330499 -0.018039241
-0.21994703 -0.1488113 0.17875284 -0.035289265 0.055386446 0.023016453 -0.17144844 0.0088673495
0.043188818 0.20759577 -0.023936914 -0.11771976 0.08436297 -0.15284777 0.20130002 -0.08029729
-0.19209437 0.003821525 -0.0808432 -0.04330278 0.06697112 0.123590514 -0.21209067 0.08623554
0.14062306 0.15731597 -0.0005514192 -0.07700678 0.0041284263 -0.18284701 0.12810603 -0.09235842
0.053568743 0.108180135 0.18558653 0.009405915 0.024036912 -0.10529808 0.17300849 0.042202696
0.12561822 0.03954518 0.073828645 0.12702458 -0.0635013 -0.09251006 -0.10448725 -0.11650898
0.029678427 -0.14790225 -0.20638286 0.14872903 -0.14632854 0.1549877 0.1323592 -0.22066565
-0.1774803 -0.24089594 -0.19231725 -0.00034949876 -0.008293139 -0.2190186 0.027042821 -0.002198562
-0.13776869 0.18394381 0.09699934 -0.101145886 -0.04737394 -0.088972285 -0.046897914 -0.099738955
0.17599177 -0.17573832 -0.060887307 0.12796085 -0.0748349 0.16516687 0.12140969 0.12139257
00000000: 886e b6bd 90ce 123e 3510 f93d 6877 23be
00000010: be63 73be 3900 c1bd bec4 7a3d 5355 363e
00000020: 1f00 15be 0722 0fbc 6b60 803d be79 5bbd
00000030: 2396 803e d46b fdbd 1ca1 4ebd e2bb 063e
00000040: b87f 0abe 282a 133d e705 9bbd 2523 7d3e
00000050: 92e3 c0bd 807f 9a3e 8313 58bd 452f 653e
00000060: 915c 883d fdb7 c2bc f9c5 7e3d ee59 fbbd
00000070: 714b 523d 0b93 413e 05fa 9dbd 63d7 01bd
00000080: 337f 6e3e 3311 143e cfde a43d f271 25be
00000090: daa7 473d 3a31 9a3d 5516 38be 6f29 85be
000000a0: c892 31be be26 923e b9fb 32be bce6 e9bd
000000b0: b5ec 25be 9c39 383d 0e17 c4bd 6771 3e3e
000000c0: 9e31 c1bd 923b 23be ea77 6abd f7f7 1a3e
000000d0: 0bcc ddbd ec77 39be 24d0 3e3e ba75 cdbd
000000e0: b953 d3bd 7cb4 e4bd cf04 e63c 730f 2fbe
000000f0: 442c 5bbd 8643 2a3e bfb5 e53d 4e83 783e
00000100: 0585 063e 1845 3fbd 6cb7 e93d 38e5 093d
00000110: cfc2 d23d b279 63be 698a 883d b733 593e
00000120: 0e12 f1bc 782d a23d 9383 223d 95a7 d3bd
00000130: 0ca4 153e 004a 083d 6245 4c3d e780 693c
00000140: 2d6d 4d3d a36f d03d 6dfa adbd 7c69 b9bd
00000150: f371 eb3d 140f 9ebe f6e1 21be 14ac 393e
00000160: 505c 3dbe 57dc 6dbd bd20 c13d 444d 12bd
00000170: 0ce6 4fbe 80ab 5ebc f497 f93d 0a09 36be
00000180: 9f07 8d3d 2e59 83be 5762 bb3c e147 4fbe
00000190: ebc7 f4bd a342 173e 4964 50be 5ce2 483e
000001a0: 7fe8 193e 57db ff3d 2ba9 d7bd cb83 28be
000001b0: 943e a2bd 6aa5 2fbe 5d16 31be b7a4 edbd
000001c0: 29e3 0ebe d3b1 22bd 9527 033e d5d8 2b3e
000001d0: de65 5ebd d032 2a3c 2000 37be d069 82be
000001e0: 9ea3 ea3c bbba 203e 5523 983c 585c 38be
000001f0: c0ac 4ebc 814e a0be c038 54bd f384 2b3e
00000200: 68f0 223e 74da 1fbe b45c 173e f14a ebbd
00000210: d8f0 e03d 81a7 38be 5998 52be 8907 23be
00000220: 7785 203e 42dc 6e3d f55c 80bd e220 80bd
00000230: 7489 b3bc 184d 1fbe 4df6 4c3e d0a7 29be
00000240: 40f1 203e 1c57 88bd 293f d13d 506c c1bc
00000250: 4184 9cbd d7ae 6ebe 62af 393e 25e0 693e
00000260: 5483 53bd 6475 fc3d aaa3 cd3d 3177 29be
00000270: 6559 82bd 22d9 2cbe 16e6 81bd 6413 96bd
00000280: 151f 0d3e e9ea 0fbe 8984 82bd 6d52 a43c
00000290: a7e2 da3d 15c2 be3d e533 8b3d b3d6 21be
000002a0: 43d2 143e 579c 0f3e d577 4abd 9ad4 973b
000002b0: 2617 c2bd 7422 5dbb 720c e83d 08c7 93bc
000002c0: cb39 61be fd61 18be fc0a 373e 7a8b 10bd
000002d0: e6dc 623d 008d bc3c 2e90 2fbe 5c48 113c
000002e0: c2e6 303d fc93 543e 5917 c4bc 0f17 f1bd
000002f0: 7ec6 ac3d 2084 1cbe 9821 4e3e e872 a4bd
00000300: 63b4 44be 8d72 7a3b 1f91 a5bd 415e 31bd
00000310: 2828 893d 061d fd3d 4c2e 59be 429c b03d
00000320: 7eff 0f3e 7017 213e 1e8d 10ba bbb5 9dbd
00000330: c047 873b 3f3c 3bbe 3a2e 033e 6926 bdbd
00000340: e66a 5b3d 8c8d dd3d 650a 3e3e 441b 1a3c
00000350: 0fe9 c43c 85a6 d7bd 2329 313e bcdc 2c3d
00000360: 10a2 003e 20fa 213d 7933 973d bb12 023e
00000370: f80c 82bd ea75 bdbd 69fd d5bd 439c eebd
00000380: 2c20 f33c b073 17be 0756 53be 6c4c 183e
00000390: 26d7 15be 18b5 1e3e 2c89 073e 2df6 61be
000003a0: 65bd 35be 6dad 76be d0ee 44be ee3c b7b9
000003b0: f2df 07bc 6946 60be e888 dd3c c015 10bb
000003c0: 3c13 0dbe c45b 3c3e 97a7 c63d 9325 cfbd
000003d0: 2d0b 42bd 1a37 b6bd 0718 40bd f043 ccbd
000003e0: 3037 343e bff4 33be f864 79bd 2b08 033e
000003f0: 0a43 99bd 8121 293e a5a5 f83d ab9c f83d

StatefulPartitionedCall/sequential_2_1/dense_4_1/BiasAdd/ReadVariableOp:0 f4 [64]
-0.06164379 -0.01234776 0.111884244 -0.011935969 -0.057983093 -0.007837159 -0.047618035 0.0
-0.052135557 -0.066479646 -0.021437835 0.14032944 0.12622912 0.0 -0.026309451 -0.039515458
0.14766778 -0.03433504 -0.016186614 -0.04740221 -0.025891863 -0.028910425 0.14416885 0.1520574
-0.010804487 0.09373654 0.14468867 0.0 -0.012105524 0.0 -0.017374428 -0.030571466
-0.068387836 -0.040896885 -0.007686291 -0.023387 -0.06624556 -0.00892295 0.09379667 -0.036575038
-0.053712577 -0.044256758 -0.008946775 -0.031496696 -0.06287729 -0.04663346 0.1750286 0.0
-0.026590735 -0.016787762 0.13451435 0.0048012133 0.089192346 0.0 0.0024871281 -0.025423523
0.104713134 -0.008287012 -0.031708553 -0.004062123 0.0 -0.016752195 0.11660483 0.010582426
00000000: 337e 7cbd 424e 4abc 9123 e53d 158f 43bc
00000010: ae7f 6dbd 6d67 00bc 210b 43bd 0000 0000
00000020: 188c 55bd 7b26 88bd 669e afbc 85b2 0f3e
00000030: 3542 013e 0000 0000 eb86 d7bc f6da 21bd
00000040: 3936 173e e6a2 0cbd ca99 84bc d228 42bd
00000050: 2c1b d4bc 8ed5 ecbc 00a1 133e efb4 1b3e
00000060: 4e05 31bc f1f8 bf3d 4429 143e 0000 0000
00000070: 3f56 46bc 0000 0000 d154 8ebc 0371 fabc
00000080: ec0e 8cbd 7e83 27bd 48dd fbbb 1896 bfbc
00000090: c1ab 87bd 9131 12bc 7818 c03d b5cf 15bd
000000a0: b801 5cbd 9346 35bd 7f95 12bc ae02 01bd
000000b0: cfc5 80bd ba02 3fbd b33a 333e 0000 0000
000000c0: d0d4 d9bc 7d86 89bc 21be 093e 7f53 9d3b
000000d0: 7aaa b63d 0000 0000 16ff 223b fe44 d0bc
000000e0: d773 d63d 3fc6 07bc d4e0 01bd 8f1b 85bb
000000f0: 0000 0000 e63b 89bc 83ce ee3d e961 2d3c

StatefulPartitionedCall/sequential_2_1/conv2d_8_1/convolution/ReadVariableOp:0 f4 [64, 32, 3, 3]
0.018375654 0.07349757 -0.030096123 -0.06467851 0.043125335 -0.10933633 -0.057413887 -0.095997214
0.004222639 -0.05659929 0.05305871 -0.063856 0.039009668 0.02558658 -6.752504e-05 -0.021398421
-0.05301254 0.004993504 -0.07787714 -0.0386011 -0.10530221 0.04031739 -0.052547894 0.0014206626
-0.035002295 -0.0042150803 -0.006537587 0.07274926 0.10302377 -0.013988999 -0.027448297 0.12541647
-0.007876545 0.014739134 -0.016741911 0.020884726 0.023792773 -0.037138253 0.04728654 0.007158904
-0.040346935 -0.03275133 -0.005640533 0.031860087 0.05244462 0.010741606 -0.07614268 -0.05914376
0.0010613191 -0.09563256 -0.1016317 -0.0160101 -0.077589326 -0.058822628 0.06850893 0.07176264
-0.036810424 -0.08266105 0.017310325 -0.08266424 -0.07823104 0.0040881145 -0.08096383 -0.14617291
0.008414931 0.053179126 -0.033935547 -0.0833227 -0.019220334 0.021348184 0.027920194 0.1544977
0.03252964 0.028325109 -0.011696655 0.046454165 -0.038888346 -0.058952946 0.04003748 -0.08586431
-0.07136497 -0.15326951 -0.13221231 -0.46455783 -0.08780079 -0.0807164 -0.23722334 -0.097069904
-0.17582466 -0.108616725 -0.07990947 -0.009728782 0.018599037 0.010813261 -0.006736688 -0.08836734
-0.0035205875 -0.05094199 0.06438431 0.042696778 -0.04579722 -0.03826846 0.03103981 -0.07776109
0.022808736 -0.016437972 -0.06610521 -0.016848892 0.12121718 0.06473326 0.37664843 0.12301835
0.023590032 0.54536414 -0.075480826 0.08871036 -0.1858728 0.06979256 -0.046574738 -0.0843237
0.035275746 -0.047234762 0.009583837 0.023242198 0.09197011 -0.08339293 -0.114257626 -0.030403392
-0.08413449 -0.2003676 -0.110411644 -0.072455004 -0.1078864 -0.12434035 -0.20689616 0.08978337
0.08346808 -0.17056797 0.18563464 0.1452927 0.037683114 0.087793514 0.21508738 -0.044862192
-0.08278467 -0.10479995 -0.20718375 -0.18518682 -0.07582934 -0.040484596 -0.01746707 0.011750543
-0.10193077 0.044171073 0.043996036 -0.0121135935 0.015742885 0.032516405 0.011837712 0.0708212
0.004195969 -0.044410624 0.5022656 0.4295293 0.4267061 0.4991106 0.5321048 0.5788934
0.20633276 0.12983584 -0.11415961 -0.04248876 0.09040421 -0.059083313 -0.15873256 0.035075538
0.12972377 -0.19404197 0.026711348 0.19904879 -0.12214561 0.09780684 -0.111476265 0.05430092
0.0070837224 0.047807153 0.035694517 -0.022640724 0.16238484 -0.050354745 -0.08304864 -0.026602123
-0.07072427 -0.010885132 -0.011295788 -0.030417347 -0.048143245 -0.07462212 -0.015212342 -0.07456824
-0.00883213 -0.045886148 -0.10752586 0.03999667 0.030597692 0.0113917375 -0.087795965 -0.070564225
-0.06864312 -0.1140983 -0.16456118 -0.041881055 -0.25501066 -0.13015066 -0.036079075 -0.2529807
0.040727872 -0.08891705 0.0031199483 -0.008765503 0.062254366 -0.02612295 0.07176544 0.042870793
-0.10073493 0.2676405 0.07273981 0.12576033 -0.030152675 0.05234128 0.022465467 0.053838573
-0.09237626 -0.04450784 0.12264593 0.059445262 0.064361185 0.068459705 0.01875694 -0.15651305
-0.052080378 -0.0016809783 -0.031518534 0.72678435 0.18765306 0.049904082 0.19339347 0.055632494
0.07035632 0.26424253 0.101852626 0.14491545 -0.03577987 -0.021138232 0.081900544 0.025487378
00000000: 8a88 963c e585 963d 258c f6bc 2b76 84bd
00000010: 31a4 303d baeb dfbd d32a 6bbd 309a c4bd
00000020: 105e 8a3b a8d4 67bd 1754 593d efc6 82bd
00000030: 9ac8 1f3d f39a d13c 3b9c 8db8 be4b afbc
00000040: ad23 59bd 8ca0 a33b 0d7e 9fbd 301c 1ebd
00000050: afa8 d7bd d923 253d 763c 57bd 8735 ba3a
00000060: 915e 0fbd a81e 8abb 4139 d6bb 90fd 943d
00000070: 20fe d23d 1d32 65bc 40db e0bc 2d6d 003e
00000080: a00c 01bc 697c 713c 5526 89bc 7216 ab3c
00000090: 10e9 c23c 481e 18bd 88af 413d 3d95 ea3b
000000a0: d442 25bd 4226 06bd 38d4 b8bb b97f 023d
000000b0: 2bd0 563d 90fd 2f3c b2f0 9bbd ba40 72bd
000000c0: f61b 8b3a 01db c3bd 4824 d0bd 9d27 83bc
000000d0: 27e7 9ebd ffef 70bd 694e 8c3d 4af8 923d
000000e0: 87c6 16bd 324a a9bd 62ce 8d3c de4b a9bd
000000f0: 9837 a0bd 97f5 853b 5dd0 a5bd 5aae 15be
00000100: c7de 093c 5bd2 593d 0000 0bbd 17a5 aabd
00000110: f673 9dbc 63e2 ae3c e4b8 e43c a534 1e3e
00000120: cd3d 053d 0f0a e83c 54a3 3fbc b946 3e3d
00000130: 6349 1fbd a578 71bd 57fe 233d a1d9 afbd
00000140: cc27 92bd aff2 1cbe aa62 07be 86da edbe
00000150: e7d0 b3bd a44e a5bd adea 72be 96cc c6bd
00000160: 610b 34be 7272 debd 94a7 a3bd 7865 1fbc
00000170: 025d 983c 1b2a 313c 6fbf dcbb f0f9 b4bd
00000180: a8b9 66bb 8ca8 50bd ecdb 833d d1e2 2e3d
00000190: de95 3bbd 64bf 1cbd 3347 fe3c 3541 9fbd
000001a0: 63d9 ba3c eda8 86bc 2b62 87bd b006 8abc
000001b0: b640 f83d df92 843d 10d8 c03e 0bf1 fb3d
000001c0: e23f c13c fc9c 0b3f b195 9abd c7ad b53d
000001d0: 7055 3ebe 67ef 8e3d 27c5 3ebd e7b1 acbd
000001e0: 4d7d 103d 3d79 41bd 8705 1d3c 6c66 be3c
000001f0: d35a bc3d eac9 aabd e7ff e9bd 8910 f9bc
00000200: b44e acbd 2a2d 4dbe 801f e2bd 4a63 94bd
00000210: 8bf3 dcbd 27a6 febd 96dc 53be 58e0 b73d
00000220: 50f1 aa3d 5fa9 2ebe 0217 3e3e 9cc7 143e
00000230: 9c59 1a3d 16cd b33d de3f 5c3e 6bc1 37bd
00000240: 028b a9bd 5ba1 d6bd fa27 54be 9da1 3dbe
00000250: 6a4c 9bbd 2dd3 25bd 1a17 8fbc 5985 403c
00000260: 14c1 d0bd baec 343d 3035 343d 1878 46bc
00000270: 39f7 803c ec2f 053d f6f2 413c b50a 913d
00000280: 577e 893b eae7 35bd 7a94 003f 44eb db3e
00000290: 3979 da3e 6d8b ff3e 0538 083f 5c32 143f
000002a0: e548 533e b0f3 043e 83cc e9bd b208 2ebd
000002b0: d825 b93d 5801 72bd ca8a 22be 5eab 0f3d
000002c0: 4fd6 043e f0b2 46be c2d1 da3c 72d3 4b3e
000002d0: 7a27 fabd f44e c83d ab4d e4bd a46a 5e3d
000002e0: 921e e83b 6fd1 433d 6a34 123d 0a79 b9bc
000002f0: 3648 263e c740 4ebd 6815 aabd b2ec d9bc
00000300: e3d7 90bd 8d57 32bc f811 39bc cd2d f9bc
00000310: da31 45bd 7bd3 98bd 303d 79bc 3cb7 98bd
00000320: a3b4 10bc 1df3 3bbd 8536 dcbd 8cd3 233d
00000330: 03a8 fa3c 69a4 3a3c 5fce b3bd fa83 90bd
00000340: c494 8cbd 5fac e9bd ba82 28be 788b 2bbd
00000350: c290 82be 3746 05be a7c7 13bd b086 81be
00000360: 45d2 263d 241a b6bd 0c78 4c3b 2f9d 0fbc
00000370: 6ffe 7e3d ccff d5bc c2f9 923d 4999 2f3d
00000380: 1d4e cebd 2d08 893e 9cf8 943d 51c7 003e
00000390: be02 f7bc cf63 563d 8009 b83c d685 5c3d
000003a0: c42f bdbd da4d 36bd ca2d fb3d e07c 733d
000003b0: cccf 833d 9a34 8c3d 27a8 993c f544 20be
000003c0: 3c52 55bd 4654 dcba 9419 01bd 8a0e 3a3f
000003d0: 2028 403e 3968 4c3d f008 463e e6de 633d
000003e0: f916 903d cc4a 873e 1c98 d03d b764 143e
000003f0: ea8d 12bd 162a adbc 79bb a73d e8ca d03c

StatefulPartitionedCall/sequential_2_1/conv2d_8_1/Squeeze:0 f4 [64]
-0.10205218 -0.082640484 0.10588596 0.045799885 0.074525714 -0.09785203 -0.035455458 0.08461297
0.06813468 0.076092884 0.08487667 -0.008349551 -0.03771293 -0.039887898 -0.0344914 -0.0013107951
0.05658357 -0.039921306 -0.06132434 -0.09182988 -0.019008048 0.05414849 -0.019002737 -0.08897507
0.119107 -0.022120375 0.07431998 -0.0856699 -0.06096413 -0.044340596 -0.0044132927 -0.074118555
0.0851755 -0.031703454 -0.063937426 -0.02062265 0.059770603 0.07290336 -0.08006316 0.05922271
-0.060856048 -0.03308608 -0.0076903803 -0.03330243 -0.106092624 -0.028188063 0.023625191 -0.06777621
0.118771665 0.03882472 -0.05269814 -0.13080618 -0.0067370273 0.048832987 -0.040030584 -0.023594277
-0.036005214 0.1033372 -0.08779163 -0.02415111 -0.0125213405 0.09380469 0.09950617 -0.02576255
00000000: bc00 d1bd 6a3f a9bd bdda d83d a998 3b3d
00000010: f0a0 983d a566 c8bd be39 11bd 9149 ad3d
00000020: 328a 8b3d 96d6 9b3d d2d3 ad3d 8ecc 08bc
00000030: e078 1abd 7e61 23bd db46 0dbd fcce abba
00000040: 2cc4 673d 8684 23bd 3b2f 7bbd 4e11 bcbd
00000050: c4b6 9bbc cfca 5d3d a1ab 9bbc 9038 b6bd
00000060: 5fee f33d ca35 b5bc 1335 983d b373 afbd
00000070: 86b5 79bd 7c9e 35bd 629d 90bb 78cb 97bd
00000080: 7e70 ae3d 7bdb 01bd a0f1 82bd d5f0 a8bc
00000090: 05d2 743d 5b4e 953d 27f8 a3bd 8393 723d
000000a0: 3144 79bd 4585 07bd 96ff fbbb 2168 08bd
000000b0: 1747 d9bd a7ea e6bc 9e89 c13c 41ce 8abd
000000c0: 8f3e f33d ab06 1f3d 01da 57bd 0ef2 05be
000000d0: 48c2 dcbb 1905 483d 1cf7 23bd c948 c1bc
000000e0: 347a 13bd 74a2 d33d 19cc b3bd 8cd8 c5bc
000000f0: 4f26 4dbc ac1c c03d e4c9 cb3d fc0b d3bc

StatefulPartitionedCall/sequential_2_1/conv2d_7_1/convolution/ReadVariableOp:0 f4 [32, 16, 3, 3]
0.027225623 0.07227358 -0.05733064 -0.15589108 -0.045271948 0.18154481 -0.13781106 -0.13333905
0.02699053 -0.019178418 0.053633586 -0.10598559 0.046179604 0.06361486 0.10267652 0.036548287
-0.14110334 -0.1038463 0.037259117 0.07442784 -0.108097345 0.066356875 -0.1068711 -0.07894185
-0.12540133 0.063708514 0.02757416 -0.13889846 0.060283028 -0.0035563614 0.0023188787 -0.035779074
-0.12542623 0.014869622 0.03955609 -0.023375766 -0.06438037 0.024845898 -0.010178278 0.010186428
0.05941007 0.08427741 0.082500175 0.106856704 -0.07670844 0.05796376 0.082212724 0.056116104
-0.15677294 -0.011099616 -0.111478016 -0.118604094 -0.17414203 -0.083007075 -0.028437898 0.14307295
0.11273503 -0.1230462 0.028809732 0.13143124 0.07801191 -0.05962015 0.041293524 0.025996907
-0.14289358 -0.10119788 -0.24521112 0.025298648 -0.069888815 -0.012867766 -0.18330169 0.031181626
-0.14161971 -0.16857703 0.05365233 -0.06792291 -0.009461297 -0.17184423 -0.085816555 -0.036260515
-0.05807805 0.095396176 0.04729105 -0.0788203 -0.056021 -0.08145321 0.08022574 -0.08325405
-0.097808026 -0.044453878 -0.17973757 0.042205617 0.06896455 -0.31639573 -0.14764349 -0.0859635
-0.033376303 0.025253039 -0.13300794 -0.008454461 0.04254254 -0.113752805 -0.14268169 -0.06616775
-0.017906114 0.018307688 0.02919508 0.0072096577 -0.084676184 0.069655724 -0.018845756 0.08917046
-0.13607056 0.10583811 0.010455086 0.038803697 -0.015482559 0.05132234 -0.077379405 -0.029977087
-0.06419656 -0.2899828 0.12698153 -0.08897089 -0.28486207 0.009901554 -0.28050542 -0.03613021
-0.15978402 -0.024761433 0.040798385 0.11407403 -0.044380035 -0.020173216 -0.31558833 -0.043595426
0.17403641 -0.61180407 -0.28492746 -0.21555841 0.1626731 -0.133925 -0.18349053 -0.10426137
-0.14361341 0.068522334 -0.007102035 -0.039086886 -0.08557857 -0.13736485 -0.008604593 -0.08487046
-0.029299276 0.010660888 0.08789897 -0.030622823 -0.109242305 0.07105802 0.041071206 -0.07041702
0.020288443 -0.0998992 0.07599311 -0.11569845 0.07114292 -0.079711415 0.07502663 0.0042292248
-0.11664335 -0.0019014308 -0.03447514 -0.10284221 -0.08815225 -0.016802754 0.04806207 -0.004174925
0.05866723 -0.09997716 -0.081140906 -0.06272739 -0.012656996 0.07770761 0.06467163 0.032874547
0.08901169 0.031132014 0.0288579 -0.10219878 0.090651624 0.0063295322 0.04391944 -0.06526719
-0.06525627 -0.008535117 -0.09976418 0.0624192 -0.0070789154 -0.0018132356 -0.08451901 -0.10490723
-0.010107772 -0.023551254 -0.023679383 -0.105113596 -0.06942206 -0.07889294 -0.020996505 -0.011896139
-0.04301238 0.0998071 -0.29113328 0.12276422 -0.09944079 0.07851328 0.0037200942 -0.08309119
-0.11419419 -0.012048344 0.15103026 -0.117931195 0.030854298 -0.02828949 0.019034756 -0.0666796
0.007310802 0.01956093 0.036482196 -0.15207009 -0.088147126 0.060181055 -0.22783875 -0.045906752
0.021117799 0.08065604 0.030087687 0.0012074707 0.13278167 -0.27495664 0.061923105 0.062047534
0.008210415 0.045760788 -0.090493545 0.0683235 -0.057590716 -0.08294258 -0.016515436 -0.038462035
-0.13090621 0.0468267 -0.031140374 0.0079912245 -0.07787687 0.00020067923 0.06566435 -0.08114885
00000000: 4508 df3c 2c04 943d 88d3 6abd e9a1 1fbe
00000010: 146f 39bd e2e6 393e 581e 0dbe 088a 08be
00000020: 3e1b dd3c 0f1c 9dbc e4ae 5b3d f90e d9bd
00000030: d326 3d3d 8248 823d 1148 d23d a8b3 153d
00000040: 657d 10be 5ead d4bd 049d 183d a06d 983d
00000050: 2462 ddbd 1de6 873d 3cdf dabd 44ac a1bd
00000060: 3569 00be 9c79 823d 34e3 e13c 663b 0ebe
00000070: 56eb 763d d811 69bb 54f8 173b 148d 12bd
00000080: bc6f 00be b79f 733c 9105 223d 897e bfbc
00000090: dbd9 83bd a089 cb3c cbc2 26bc fae4 263c
000000a0: f957 733d a299 ac3d daf5 a83d b0d7 da3d
000000b0: 5119 9dbd 686b 6d3d 255f a83d 00da 653d
000000c0: 1689 20be 2adb 35bc 964e e4bd b4e6 f2bd
000000d0: 4a52 32be 9dff a9bd 98f6 e8bc b781 123e
000000e0: a0e1 e63d a5ff fbbd 6302 ec3c e995 063e
000000f0: b5c4 9f3d 4234 74bd 6623 293d 77f7 d43c
00000100: b252 12be d640 cfbd a018 7bbe 1c3f cf3c
00000110: de21 8fbd 53d3 52bc 70b3 3bbe 9c70 ff3c
00000120: c204 11be 759f 2cbe 8cc2 5b3d 2b1b 8bbd
00000130: 8e03 1bbc eff7 2fbe 97c0 afbd e885 14bd
00000140: 40e3 6dbd 125f c33d 43b4 413d 8a6c a1bd
00000150: 4776 65bd f1d0 a6bd 654d a43d 1981 aabd
00000160: 934f c8bd 4515 36bd 200d 38be ccdf 2c3d
00000170: 493d 8d3d 9ffe a1be db2f 17be a20d b0bd
00000180: 97b5 08bd 76df ce3c 3c33 08be 9484 0abc
00000190: 1641 2e3d 3bf7 e8bd 261b 12be f582 87bd
000001a0: d8af 92bc 01fa 953c 852a ef3c fe3e ec3b
000001b0: b56a adbd a9a7 8e3d 6a62 9abc 019f b63d
000001c0: 1556 0bbe a7c1 d83d cf4b 2b3c a0f0 1e3d
000001d0: 8faa 7dbc 6037 523d 1879 9ebd 8292 f5bc
000001e0: 7c79 83bd a078 94be 7207 023e 5f36 b6bd
000001f0: 71d9 91be 213a 223c 689e 8fbe 45fd 13bd
00000200: 6c9e 23be 7dd8 cabc 351c 273d a59f e93d
00000210: d7c7 35bd 4d42 a5bc cb94 a1be 1e91 32bd
00000220: 9a36 323e 319f 1cbf 03e2 91be 58bb 5cbe
00000230: c793 263e a323 09be f1e4 3bbe fc86 d5bd
00000240: 650f 13be 7055 8c3d 30b8 e8bb 9219 20bd
00000250: d143 afbd 5fa9 0cbe 47fa 0cbc 90d0 adbd
00000260: 0905 f0bc 01ab 2e3c 6004 b43d b7dc fabc
00000270: 6eba dfbd de86 913d 483a 283d cc36 90bd
00000280: f333 a63c f497 ccbd 47a2 9b3d 4ff3 ecbd
00000290: 61b3 913d bd3f a3bd 90a7 993d 4f95 8a3b
000002a0: b5e2 eebd 6e39 f9ba ce35 0dbd f09e d2bd
000002b0: 2b89 b4bd eea5 89bc bcdc 443d cfcd 88bb
000002c0: 0d4d 703d d3c0 ccbd 342d a6bd 3877 80bd
000002d0: 4a5f 4fbc 2b25 9f3d 8f72 843d 76a7 063d
000002e0: c34b b63d 9108 ff3c 6767 ec3c 984d d1bd
000002f0: 8fa7 b93d f767 cf3b dfe4 333d ceaa 85bd
00000300: 14a5 85bd e0d6 0bbc 2a51 ccbd 46ab 7f3d
00000310: 3ff6 e7bb 17aa edba 4d18 adbd 9ad9 d6bd
00000320: 129b 25bc 8fee c0bc 44fb c1bc cc45 d7bd
00000330: 272d 8ebd 9f92 a1bd dd00 acbc 06e8 42bc
00000340: c02d 30bd aa67 cc3d 6c0f 95be cf6b fb3d
00000350: 9da7 cbbd 92cb a03d d3cc 733b b72b aabd
00000360: a5de e9bd 6b66 45bc ada7 1a3e e985 f1bd
00000370: 27c2 fc3c 5cbf e7bc c7ee 9b3c 508f 88bd
00000380: 748f ef3b 3e3e a03c 5b6e 153d 43b8 1bbe
00000390: 7b86 b4bd 6980 763d 904e 69be b808 3cbd
000003a0: 3cff ac3c fe2e a53d 747a f63c fe43 9e3a
000003b0: ebf7 073e 1ec7 8cbe 15a3 7d3d 8e25 7e3d
000003c0: fa84 063c aa6f 3b3d ae54 b9bd 31ed 8b3d
000003d0: 3ee4 6bbd cddd a9bd 614b 87bc 5e8a 1dbd
000003e0: 470c 06be 5bcd 3f3d 191a ffbc a0ed 023c
000003f0: e97d 9fbd 6c6d 5239 087b 863d 5e31 a6bd

StatefulPartitionedCall/sequential_2_1/conv2d_7_1/Squeeze:0 f4 [32]
-0.017454738 -0.01770283 -0.02464801 -0.04149813 -0.03594262 -0.038397335 -0.01972041 -0.014385808
-0.03946637 -0.028910216 -0.016305186 -0.026849195 -0.038453303 -0.03175049 -0.022507258 -0.012780771
0.009437767 -0.022099806 -0.031241914 -0.039356813 -0.06526563 -0.00797164 -0.02610312 -0.008230477
-0.0393571 -0.02077844 -0.027092319 -0.052571617 -0.025345523 -0.02975563 -0.054745134 -0.007880845
00000000: 3dfd 8ebc 8605 91bc a0ea c9bc f1f9 29bd
00000010: 9238 13bd 8646 1dbd b38c a1bc 74b2 6bbc
00000020: 7da7 21bd 1ed5 ecbc 7492 85bc d8f2 dbbc
00000030: 3681 1dbd cd0c 02bd 2461 b8bc 7066 51bc
00000040: dda0 1a3c a70a b5bc 0bef ffbc 9c34 21bd
00000050: fda9 85bd 7b9b 02bc 36d6 d5bc 1fd9 06bc
00000060: e934 21bd 8c37 aabc b6f0 ddbc 5655 57bd
00000070: 6aa1 cfbc 14c2 f3bc 6f3c 60bd a91e 01bc

StatefulPartitionedCall/sequential_2_1/conv2d_6_1/convolution/ReadVariableOp:0 f4 [16, 1, 3, 3]
-0.20645334 -0.23500612 -0.0064734896 -0.43101656 -0.31150675 0.20815468 0.024747679 -0.1682019
0.20057738 0.16443238 0.056575272 -0.17230393 -0.07319835 0.22809982 0.050540455 -0.0501771
-0.01862118 0.07414741 0.02247575 0.13792665 -0.0409962 -0.015318084 0.030207815 0.15616678
0.04354535 -0.05898074 0.006424015 -0.09243855 0.12372471 -0.015784368 0.09120331 0.15724832
0.12541199 0.1461975 -0.109633066 -0.09306903 0.17117064 0.15190382 0.1583651 -0.04297806
-0.12201094 -0.12899818 -0.009685503 0.0032269976 -0.014856941 0.09573636 0.0011877383 -0.09077021
-0.13775308 0.09210005 0.12182747 0.08199875 0.120262004 -0.21956824 -0.22332829 -0.06114668
-0.18322535 -0.24264407 0.23952746 -0.24831268 0.17237456 -0.17122114 -0.023932347 0.09562925
-0.19508462 -0.12310503 -0.026427625 -0.12946348 -0.08143265 0.078902535 0.021673206 0.07036042
-0.0620139 -0.21074292 -0.19035126 0.22309838 -0.011355165 0.15074249 -0.08137323 -0.2214741
-0.1412222 -0.29966778 -0.24438415 0.16720933 0.031514145 -0.23831946 0.028767122 0.055645593
0.012606718 -0.099932805 0.029692186 -0.20298544 -0.10899414 -0.16234699 -0.16728884 -0.16065827
0.07112097 -0.16494967 -0.20343767 0.073281415 0.12292895 0.05730867 0.12683265 0.13772984
-0.04564079 0.0646658 0.094850056 -0.090661615 0.09299213 -0.13631116 0.11727501 0.14822166
-0.2104356 0.0869639 -0.010112528 -0.020483768 -0.18880235 -0.21661025 0.056501403 -0.051236093
-0.053254113 -0.2738843 -0.15963644 -0.017673442 0.04707169 0.1584517 -0.2607531 -0.06769398
-0.006401128 0.15991265 0.25922903 -0.08173279 -0.041407228 -0.03226509 -0.30739096 -0.3155642
0.22061585 0.03150365 -0.24590565 -0.08823189 -0.2943553 -0.02840802 -0.061617576 0.042971767
00000000: 8168 53be 72a5 70be 911f d4bb 34ae dcbe
00000010: d07d 9fbe 8026 553e a5bb ca3c 1e3d 2cbe
00000020: 2864 4d3e f660 283e 79bb 673d 7170 30be
00000030: 04e9 95bd 0093 693e 8203 4f3d 8186 4dbd
00000040: 728b 98bc 99da 973d 101f b83c a53c 0d3e
00000050: a2eb 27bd b3f8 7abc 6176 f73c 2fea 1f3e
00000060: 9c5c 323d ca95 71bd 8b80 d23b 6c50 bdbd
00000070: 6163 fd3d 384e 81bc cdc8 ba3d b405 213e
00000080: 006c 003e ccb4 153e 4d87 e0bd fa9a bebd
00000090: 5b47 2f3e ad8c 1b3e 762a 223e c309 30bd
000000a0: dfe0 f9bd 1918 04be f2af 1ebc 097c 533b
000000b0: 876a 73bc 6d11 c43d e2ad 9b3a bbe5 b9bd
000000c0: 250f 0dbe f39e bc3d ae80 f93d f6ee a73d
000000d0: ed4b f63d 7fd6 60be 2cb0 64be f174 7abd
000000e0: 6d9f 3bbe b077 78be b046 753e ae45 7ebe
000000f0: f582 303e 9854 2fbe c50d c4bc 45d9 c33d
00000100: 43c4 47be 7d1e fcbd bf7e d8bc 1392 04be
00000110: 29c6 a6bd a797 a13d 028c b13c 2019 903d
00000120: 4a02 7ebd fecc 57be 71eb 42be e773 643e
00000130: 040b 3abc 3d5c 1a3e 02a7 a6bd 1bca 62be
00000140: 8d9c 10be 0e6e 99be d73f 7abe ec38 2b3e
00000150: fa14 013d 040a 74be 07a9 eb3c a2ec 633d
00000160: 688c 4e3c 92a9 ccbd 073d f33c 6adb 4fbe
00000170: 5238 dfbd 4a3e 26be c44d 2bbe 9a83 24be
00000180: dfa7 913d 91e8 28be f751 50be 9114 963d
00000190: 2cc2 fb3d 7fbc 6a3d 6be0 013e 0d09 0d3e
000001a0: d6f1 3abd 816f 843d bf40 c23d ccac b9bd
000001b0: a872 be3d 2795 0bbe e12d f03d 6bc7 173e
000001c0: 6e7c 57be 211a b23d 04af 25bc 93cd a7bc
000001d0: 6755 41be 14cf 5dbe 046e 673d f0dc 51bd
000001e0: fc20 5abd 903a 8cbe bc77 23be e5c7 90bc
000001f0: 3fce 403d 2a41 223e 6e81 85be 24a3 8abd
00000200: 8ec0 d1bb 24c0 233e abb9 843e 8563 a7bd
00000210: a09a 29bd 6628 04bd 5962 9dbe a191 a1be
00000220: 1fe9 613e f909 013d b1ce 7bbe ecb2 b4bd
00000230: bdb5 96be f0b7 e8bc b662 7cbd 2a03 303d

StatefulPartitionedCall/sequential_2_1/conv2d_6_1/Squeeze:0 f4 [16]
-0.00703748 -0.0069882697 -0.026301082 -0.0036621501 -0.05648777 -0.026318334 -0.03436553 -0.047233462
-0.02135258 -0.019970655 -0.049724888 -0.063820064 -0.061978947 -0.043752152 -0.019935643 -0.028985254
00000000: a99a e6bb dbfd e4bb 5e75 d7bc af00 70bb
00000010: b85f 67bd 8c99 d7bc dfc2 0cbd e077 41bd
00000020: 9beb aebc 8099 a3bc 53ac 4bbd 18b4 82bd
00000030: a3dd 7dbd 7535 33bd 1350 a3bc 7c72 edbc
